bioqic_training/outputs/baseline/best_model.pt (torch, 486635 bytes, 23 tensors)

omega_basis f4 [3, 100]
000000 d6 3a e7 41 5e 79 b2 41 11 2c 58 41 9b a9 fc c1
       28.903728 22.309261 13.510758 -31.582815
000010 07 d2 22 41 38 25 94 c1 0e 61 25 bf 5e 8f c0 c1
       10.176276 -18.518173 -0.6460122 -24.070004
000020 31 83 34 c1 c5 d8 c5 41 c7 63 bc c0 d0 6e a8 c1
       -11.282029 24.730844 -5.88718 -21.054108
000030 07 b1 2e c1 64 43 06 c1 76 85 38 c1 a5 fc 36 41
       -10.91822 -8.391453 -11.532583 11.436681
000040 fa 13 c5 41 ad 36 19 c0 36 c0 ee c0 ba 00 d3 40
       24.634754 -2.3939621 -7.4609632 6.5938387
000050 94 f3 35 c1 eb 65 81 41 30 31 40 41 aa ac c9 41
       -11.371967 16.174765 12.012009 25.209309
000060 b3 7e 99 41 1c 92 9b 41 10 83 12 41 25 2b a0 41
       19.186865 19.446342 9.156998 20.021067
000070 fe 5b 5e c0 40 5b 20 3f 25 83 71 c0 b5 5d 4e 41
       -3.4743648 0.62639236 -3.7736294 12.897878
000080 2d 29 a6 c1 c0 18 51 c1 68 6e 56 c0 58 15 ce 41
       -20.770105 -13.0685425 -3.3504887 25.760422
000090 04 10 99 40 e4 c4 cb c0 fd be 92 40 f7 e6 39 c1
       4.783205 -6.3677845 4.585814 -11.618888
0000a0 a0 e8 ba c1 e2 f3 6e 41 0b 26 53 c1 2b 46 10 c1
       -23.363586 14.934542 -13.196788 -9.017131
0000b0 ed e5 98 c1 f5 bb fe 41 8b 28 94 c1 db 32 ea c0
       -19.112268 31.841776 -18.519796 -7.318708
0000c0 49 51 5b c1 f4 f3 1d c1 4b ce 95 3f 61 63 fc 40
       -13.707345 -9.872059 1.1703581 7.887131
0000d0 6c 3c ea c0 dc f6 8e 41 a1 5c 43 c1 66 a3 30 c1
       -7.3198757 17.870537 -12.2101145 -11.039892
0000e0 c6 63 a8 c1 0c 41 0a 3f b2 c0 73 bf c7 25 22 41
       -21.048717 0.54005504 -0.95215905 10.134223
0000f0 0b ca bb bf ee 59 dd 41 fd 24 8e c1 a3 06 a6 41
       -1.4671034 27.668911 -17.76806 20.75324
000100 83 6a ad 41 fc 89 4d 41 a5 15 05 42 94 1e fb 40
       21.677008 12.846188 33.271137 7.8474827
000110 f1 63 a6 40 2d 70 3d c0 f1 19 7d c1 06 5c 99 41
       5.1997 -2.9599717 -15.818833 19.169933
000120 72 4d 25 c0 20 6b fb 40 84 6d 59 3f 45 9f cc 40
       -2.582852 7.856827 0.8493273 6.394442
000130 50 00 0a 41 88 03 1a c1 48 62 04 c2 57 31 34 c1
       8.625076 -9.625862 -33.095978 -11.262046
000140 48 ef 26 3e a9 98 a2 c0 ad e1 a0 c1 2a 7d 0c c1
       0.16302216 -5.0811353 -20.110193 -8.780558
000150 66 af 00 41 a1 d1 fb 40 b7 f1 88 41 b8 4f 46 3f
       8.042822 7.8693395 17.118025 0.7746539
000160 69 8c 32 41 17 29 e7 c0 31 df 7b c1 8b ef 10 41
       11.15928 -7.223766 -15.74199 9.058482
000170 e7 ac ce c1 1e aa 46 c1 13 2a a0 41 4f 19 e8 40
       -25.834425 -12.4165325 20.020544 7.2530894
000180 9a 92 16 c2 92 3d ea 40 04 4d 3c 41 a9 02 dc 3e
       -37.643166 7.320016 11.768803 0.4297078
000190 01 c8 19 41 b9 fa 0b 41 fd 07 80 41 d9 12 d8 c0
       9.611329 8.748712 16.0039 -6.7523007
0001a0 56 db 31 c0 81 a9 34 41 a3 48 c2 40 cd 53 2b 40
       -2.7790122 11.291383 6.071367 2.6769898
0001b0 29 50 7e 40 bb c7 98 41 34 14 a1 bc d5 ba 91 c0
       3.9736426 19.097525 -0.019662954 -4.5540566
0001c0 ef d7 ae c1 d1 7b c4 bf f6 cb 0f c1 b1 fc e4 40
       -21.855436 -1.5350286 -8.987295 7.155846
0001d0 54 48 2e 41 f7 02 af 3f 55 c0 ba c0 61 66 fd 40
       10.892658 1.367278 -5.835978 7.9187474
0001e0 55 d9 42 be ef 33 67 40 c9 77 fe 3f f2 6a 37 41
       -0.19028218 3.6125448 1.9880306 11.46361
0001f0 b3 66 83 41 cd 25 a3 40 cd ca 2c 41 c5 79 c5 40
       16.425146 5.0983644 10.799512 6.1711144
000200 41 bd e7 41 ea d8 72 41 68 5e ac c1 4b 95 87 c1
       28.96741 15.177958 -21.546097 -16.947897
000210 d9 97 02 c0 c8 3f c4 41 46 23 1d 41 b8 3d 0a 41
       -2.040518 24.531143 9.821112 8.640068
000220 20 fb 88 41 71 93 8e 3e 55 b2 d8 c1 b8 1a 5e 41
       17.12262 0.27846864 -27.087076 13.881523
000230 51 2a b4 c0 e3 f0 77 41 d5 cb 24 c1 d4 d5 18 41
       -5.6301656 15.49631 -10.299764 9.552204
000240 16 71 69 c1 a5 07 66 41 d7 4d c2 41 bc 12 ae 41
       -14.590109 14.376866 24.288008 21.759148
000250 e4 59 81 40 00 f6 49 c0 67 df 2f c1 78 40 c8 3f
       4.042223 -3.1556396 -10.992042 1.5644674
000260 9c 66 a7 40 fc 38 68 41 cc 87 df c0 5f 93 c0 41
       5.2312756 14.513912 -6.985327 24.071959
000270 a5 ce 14 c2 c6 6b c8 c0 57 74 8f c1 fb f5 42 41
       -37.2018 -6.263156 -17.931807 12.185054
000280 ff 10 e4 c1 f8 6e 5b 40 94 eb be 3e 5e 0e a6 c0
       -28.508299 3.428648 0.37289107 -5.189254
000290 04 ae 89 40 f5 66 2f c1 d4 d3 27 40 82 45 83 c1
       4.302492 -10.962636 2.622304 -16.40894
0002a0 5e 42 c0 c1 fe 58 a2 41 c9 a8 9a 41 8b d0 48 3f
       -24.032406 20.293453 19.332415 0.7844321
0002b0 3f 9f b9 c1 05 9c 35 41 eb 1f 3a 41 2c 2f f3 41
       -23.202757 11.350591 11.632792 30.398033
0002c0 25 8a 09 3f c5 87 e7 3f fa 5b 41 c1 15 46 47 c0
       0.53726417 1.8088309 -12.084955 -3.1136525
0002d0 df aa 5f c1 7c ea be c1 2d 51 88 c1 cb d8 fa c0
       -13.979217 -23.864494 -17.039637 -7.838964
0002e0 de 02 f9 c0 36 27 b4 c1 d1 32 e7 c1 70 79 f5 3f
       -7.7816 -22.519146 -28.899813 1.9177685
0002f0 cc 7f 75 41 0e 64 05 c1 84 06 29 41 c8 5e 2a 41
       15.3437 -8.336927 10.564091 10.64814
000300 36 ed d4 41 18 2c 5d c1 ec fc 66 41 6c c4 a1 c0
       26.615826 -13.823265 14.4367485 -5.0552273
000310 40 0a 8d c1 0e de ab 40 00 cf e5 40 aa 71 a2 41
       -17.630005 5.3708563 7.1815186 20.3055
000320 82 82 fc 40 ce 71 fd 41 a3 f6 f9 c0 75 ae 5f c1
       7.890931 31.680569 -7.811357 -13.980092
000330 40 c1 31 40 37 3e 80 41 bd c8 9c 41 77 b8 dc 40
       2.77742 16.030378 19.598017 6.8975177
000340 ad 82 43 c1 f1 18 75 c1 35 90 ed c0 f1 23 0e c1
       -12.219403 -15.318589 -7.4238534 -8.883775
000350 b0 24 14 40 75 91 d3 40 51 5c 0e c0 4a 1b 0b c2
       2.3147392 6.611506 -2.2243845 -34.77665
000360 aa 09 bf c0 8a a8 81 41 27 b4 d5 c1 28 f7 b4 41
       -5.9699297 16.207294 -26.712965 22.620682
000370 94 86 94 40 fa 25 f0 c0 98 66 78 41 f5 c1 ca 41
       4.641428 -7.504636 15.525047 25.344706
000380 2b 65 8a bd dd 03 c8 41 6d c3 13 40 f2 75 7e c1
       -0.067575775 25.001886 2.3088028 -15.903795
000390 15 70 09 c1 5c 73 a0 3f 5f f4 bf 40 72 b4 ee 41
       -8.589864 1.2535205 5.9985805 29.838108
0003a0 4d 37 8a bf 72 76 59 c1 71 d8 f5 c1 07 ba 81 c1
       -1.0798126 -13.591417 -30.730684 -16.215834
0003b0 63 58 87 3e a3 31 96 3f 95 6e 39 40 ac a4 c4 40
       0.2643462 1.1733898 2.8973744 6.1451015
0003c0 c4 fd 5e c1 56 92 84 40 7f 54 01 c1 1e 0a de 40
       -13.9369545 4.1428633 -8.083129 6.938735
0003d0 de 40 51 c1 de 44 d0 be d7 8e a9 c0 af a9 af 41
       -13.078337 -0.40677541 -5.2986865 21.957853
0003e0 f1 a6 96 41 e2 96 2b c1 ce f0 4c 41 5c 3c f6 40
       18.831514 -10.724337 12.80879 7.694868
0003f0 13 89 01 41 a1 b8 07 41 b0 c7 f2 40 36 8e 55 40
       8.095965 8.482575 7.586876 3.3368049

mu_network.B_fourier f4 [3, 10]
000000 3a 27 1a 41 28 f7 ed 40 60 1d 90 40 12 71 28 c1
       9.634577 7.4364204 4.503586 -10.527605
000010 09 18 59 40 f5 86 c5 c0 68 81 5c be 94 5f 00 c1
       3.392092 -6.1727242 -0.2153374 -8.0233345
000020 ec ae 70 c0 d9 e5 03 41 b4 2f fb bf c0 93 e0 c0
       -3.7606764 8.243615 -1.9623933 -7.018036
000030 0a ec 68 c0 85 04 33 c0 94 5a 39 c1 49 c1 8a bf
       -3.6394067 -2.7971509 -11.584614 -1.0840236
000040 3c 8c dd c0 d5 65 8b c0 46 f4 8e bf 90 63 09 41
       -6.9233685 -4.3561807 -1.1168296 8.586807
000050 5a 15 cc 3f 98 d8 07 c0 95 91 84 c0 66 c6 d3 3f
       1.5944016 -2.1225948 -4.1427712 1.6544921
000060 2b 36 f9 c0 41 4d 9f 40 07 c4 8c c0 8e 5d 40 c0
       -7.7878623 4.9781804 -4.398929 -3.0057101
000070 3c dd cb c0 a4 d2 29 41
       -6.370756 10.613926

mu_network.net.0.weight f4 [64, 23]
000000 8f fe 90 3d 70 d5 90 3e 75 24 c7 3e d4 20 13 bf
       0.07079803 0.2828784 0.38895002 -0.57471967
000010 d4 be bd be 59 41 18 3d d5 94 c6 3e d7 0d 7b 3c
       -0.37059653 0.037171695 0.38785425 0.015323124
000020 19 dd 27 bf ca d8 a2 3d 05 68 14 be 40 37 9f be
       -0.65571743 0.079515055 -0.14492805 -0.3109684
000030 91 7c 25 bf 91 01 9f 3e d6 87 ab be 10 1c 0b 3f
       -0.646432 0.31055883 -0.33502072 0.54339695
000040 85 02 e2 bc b2 59 39 3d 22 6c 96 3e 55 2e f6 be
       -0.027589092 0.045251556 0.29379374 -0.48082224
000050 ef 1f 23 bf dd 98 ca 3e 28 6e 10 be 4d 1c b4 3e
       -0.637206 0.3956975 -0.14104521 0.35177842
000060 37 95 1f 3f bf a1 2a 3e f3 79 39 bd 62 e2 7a 3f
       0.6233706 0.16663264 -0.045282315 0.9800168
000070 6d 60 83 3e f2 5d 95 3e 39 93 1c bf 3c ba d2 bd
       0.25659505 0.29173237 -0.61162144 -0.10289428
000080 bb e4 2e 3e 47 9e 03 3f 94 45 6c 3d b8 62 61 be
       0.17079441 0.5141339 0.057683542 -0.22010314
000090 94 61 b6 be 1b fd 2c 3e 1e ed 11 bf 89 26 04 bf
       -0.3562132 0.16893427 -0.5700244 -0.516213
0000a0 9d f3 73 3e f2 1f 3d 3e c7 8a 96 3e 87 6e 9d be
       0.238234 0.18469217 0.29402754 -0.30748388
0000b0 94 75 b2 3e 88 6d c0 3d d0 ca 11 bf 8a 6d 8c 3e
       0.3485533 0.093958914 -0.5695009 0.27427322
0000c0 1f 80 f1 be 5b af e8 be 86 88 a3 3e 13 15 6a be
       -0.4716806 -0.45446286 0.31940097 -0.22859602
0000d0 c5 be 6c 3e fc 64 00 be c6 42 c8 be 41 76 6d 3e
       0.23119648 -0.12538522 -0.39113444 0.23189642
0000e0 49 a0 88 3f 67 d3 10 be b6 1a 97 3c 77 1a 8b bd
       1.0673915 -0.14143144 0.018445354 -0.06792157
0000f0 68 50 76 3e 51 5c fa 3d 85 56 2c 3d c8 be 0a bf
       0.2405411 0.12224639 0.0420747 -0.5419736
000100 1f a6 a9 bc 5d 67 ce 3e a1 31 ac be 22 28 2b 3e
       -0.020709096 0.40313235 -0.33631614 0.16714528
000110 57 d6 5d be d9 0c 51 be 78 e2 43 be 3c da 21 3e
       -0.21663795 -0.20415057 -0.1912936 0.15805906
000120 63 65 ad 3c 79 4d ce 3e d3 ec bd bd 30 17 b7 be
       0.021166509 0.40293482 -0.09273686 -0.35759878
000130 ee 4e 67 be c0 d9 9b 3e 06 ff 15 3f 02 6e 2f 3e
       -0.22588703 0.30439568 0.5859226 0.17131808
000140 8e 59 4c bf aa 78 15 bf b2 ee da 3e 98 6c 14 bf
       -0.7982415 -0.58387244 0.42760235 -0.579782
000150 a5 65 94 3e 8b de d8 be f0 b5 e2 3e 43 cc 47 3e
       0.289838 -0.42357287 0.44279432 0.19511513
000160 b3 3f 92 be 81 aa 6f 3e b5 f7 97 3e 4a 05 48 bf
       -0.28564224 0.23404886 0.29681173 -0.7813307
000170 67 01 af 3e af e6 03 be 63 fd 04 3f e9 9c 09 bf
       0.34180757 -0.12880968 0.5194914 -0.5375505
000180 3d e5 84 be 22 dc 0f be 7a 7a ef 3e b8 3e 26 3d
       -0.25956145 -0.14048818 0.4677313 0.040587157
000190 90 71 ab 3e 0a 0c cd 3d 67 29 1c bf f2 c0 be 3c
       0.3348508 0.10012062 -0.61000675 0.023285363
0001a0 19 82 4f be 93 a9 1e bf 75 34 8d 3e 95 bc 02 bf
       -0.20264472 -0.619775 0.27579084 -0.51069003
0001b0 23 2b 89 be 4d ab 29 bf cd 23 07 bd a5 81 99 be
       -0.26790723 -0.6627701 -0.032993127 -0.29981723
0001c0 81 f4 91 be cf 3d 71 bf 7d 1d 40 be fe 67 f9 3d
       -0.28506854 -0.9423494 -0.18761249 0.12178038
0001d0 6e 80 2d bf 09 7f c4 be 4d c2 92 bf 40 59 68 3e
       -0.67774093 -0.3837817 -1.1465546 0.22690296
0001e0 21 3c a5 3e 2c d3 bd 3e cd 69 e9 bb e7 9b 55 be
       0.32272437 0.37075174 -0.007123208 -0.20860253
0001f0 5e 7b a9 3e 84 73 9b 3d 4a 28 b9 be 84 0d e6 bc
       0.33101934 0.07590392 -0.3616355 -0.028082617
000200 de 39 7c 3d 27 71 b9 bd ab 0f 87 3d 55 ef 0b be
       0.061578624 -0.09054785 0.06594785 -0.13665517
000210 2e ea 56 be ad 5e 31 3f 75 55 f8 3d 1e 60 d5 be
       -0.2098777 0.6928509 0.12125675 -0.41674894
000220 a5 22 75 3f 42 d5 35 bd 81 6d 4a 3e cc 42 38 be
       0.9575599 -0.04439283 0.19768335 -0.17994231
000230 46 64 39 3d 14 12 6e 3e 4f 2b 53 3f 30 70 c1 3e
       0.045261644 0.23249084 0.8248796 0.37780905
000240 19 ae d0 be 65 29 29 be c6 d4 c2 3e b0 15 c6 3e
       -0.40757826 -0.16519697 0.38052958 0.3868842
000250 18 47 9c be b4 6f 78 3e 79 eb 00 bd 57 06 83 3e
       -0.3052299 0.24261361 -0.031474564 0.25590774
000260 1c 22 e8 3d f4 ff 1a be 1e a7 a2 3e b6 98 07 bf
       0.11334631 -0.15136701 0.31768125 -0.52967393
000270 3c 3e a3 be 66 7e 31 3e 2d b3 3e 3e 2b 98 04 3f
       -0.3188342 0.17333373 0.18623038 0.5179469
000280 29 9b a9 be a7 7a 02 3f bd c6 64 be b5 cd 44 3e
       -0.3312619 0.509684 -0.22341438 0.19219096
000290 5c 8b 24 be 2c b3 ab 3e cb 9c 79 3f 87 ec 0e bf
       -0.16068786 0.33535135 0.9750487 -0.5582966
0002a0 cd 8e c6 3c e3 df e0 3d f9 6b ce 3b 1c 25 56 bd
       0.024238015 0.10980203 0.0062994924 -0.052281484
0002b0 95 39 32 3e 46 7c 47 3e 1e de b7 bc 86 af 3d be
       0.17404778 0.19481 -0.02244478 -0.18523988
0002c0 5c f2 5b bf aa 70 de be e5 8c 49 be 0f a7 33 3f
       -0.85916686 -0.4344533 -0.19682653 0.70176786
0002d0 bc 98 a5 bc 19 96 92 3e f8 66 23 bf 4a 43 15 be
       -0.020214431 0.2863014 -0.6382899 -0.1457645
0002e0 5e a9 94 3e a0 44 ca be 46 5d 04 bf bb 8e c8 3d
       0.29035467 -0.39505482 -0.51704824 0.09792849
0002f0 d2 8a 52 be 95 97 dc bd 37 0d 44 bf 32 75 62 be
       -0.20560768 -0.107710995 -0.76582664 -0.22115019
000300 18 f4 27 3e 21 83 f3 be 64 c5 6d be 7d b7 50 bf
       0.16401708 -0.4756098 -0.2321983 -0.8152998
000310 04 53 3f 3d 5a 96 a4 3e c6 e4 0f bf 1a d6 aa be
       0.04671003 0.3214596 -0.56208456 -0.33366472
000320 bf ac 84 be f6 8e 1b 3e 6d e9 bb be 03 75 de be
       -0.25913045 0.15191254 -0.36701527 -0.43448648
000330 25 bb 23 3f 95 c2 16 bf 91 80 b3 3d bf 3b 8b 3e
       0.63957435 -0.5889066 0.087647565 0.2719402
000340 53 ef 54 bd 76 8e 10 be 82 45 c3 3e b2 ae ff be
       -0.05198605 -0.14116845 0.38138968 -0.4993797
000350 f4 d4 ca 3e 3c e5 8d bd 93 65 30 3f c0 3c d8 3e
       0.39615595 -0.069284886 0.6890499 0.4223385
000360 17 22 3c 3e ec 17 2c 3d a2 60 1b bf 85 36 e5 be
       0.18372379 0.042015 -0.60694325 -0.44768158
000370 8b 09 9a be 11 61 a6 bd 1b 4f 3b 3b d1 c9 e6 be
       -0.30085406 -0.08123983 0.0028581086 -0.4507585
000380 6f a9 88 3e be cb 46 bf 26 65 8e be fb 59 3d be
       0.26691768 -0.77654636 -0.27811545 -0.18491356
000390 11 81 83 3e 1b c9 3c 3f 08 ca be 3e 08 58 e0 be
       0.25684407 0.7374436 0.37263513 -0.43817163
0003a0 4b 8e a4 3e f6 04 fb bd a0 83 54 be 31 7e c0 3e
       0.3213981 -0.122568056 -0.20753336 0.37596276
0003b0 11 b2 b9 3e ff ba 26 bf 40 0f 00 bf c0 36 2a bf
       0.36268666 -0.65129083 -0.5002327 -0.6648979
0003c0 02 f6 83 ba 7a 3b 8b 3e 5c e6 52 bf a8 f0 cf be
       -0.0010067823 0.27193815 -0.8238275 -0.40613294
0003d0 14 d6 08 bf 47 d1 84 3e 51 ca 90 3c 94 32 d3 be
       -0.5345166 0.25940916 0.017674597 -0.41249526
0003e0 2c d7 33 be 00 8f c9 3c f1 2d cf be 43 75 3b be
       -0.1756255 0.02460432 -0.40464738 -0.1830645
0003f0 d1 91 a4 be 5a 8e 87 bd 89 2f 49 3d b1 b1 f5 bd
       -0.321425 -0.06618948 0.0491176 -0.119967826

mu_network.net.0.bias f4 [64]
000000 bd 2a 2c bf 4f 00 3b be f4 ed 89 3e 2d 55 fa bd
       -0.67252713 -0.18261836 0.26939356 -0.12223277
000010 51 f8 6a 3e ce 45 bb bc bd a3 6a be 54 9c 0b 3e
       0.22946288 -0.022860434 -0.22914024 0.13633853
000020 97 43 9e bc dc c3 64 3d f6 4f 95 3e 00 fe d5 bd
       -0.019319339 0.05585085 0.29162568 -0.10448837
000030 3b 0c 23 be e4 94 94 3e 82 ca 20 3e 14 e0 8e bd
       -0.15922634 0.29019845 0.1570225 -0.06976333
000040 f6 06 13 3e 94 c0 80 3c 96 6e 34 be c7 e2 67 bd
       0.14358124 0.015716828 -0.1762031 -0.056612756
000050 4b a7 a3 3d 8b af 9e be ca bb 53 3d 42 55 31 3f
       0.07990893 -0.30993304 0.05169276 0.6927072
000060 f4 a2 8f be 2a 05 32 be d7 12 f3 3d 50 51 74 be
       -0.2805401 -0.17384782 0.11868828 -0.23859143
000070 19 a0 95 bd f9 4c 1a be 80 17 8d bd a6 74 cb bd
       -0.07305927 -0.15068425 -0.06889248 -0.09934358
000080 91 58 5d be ed 03 88 bc e8 41 05 3f 33 4a 06 be
       -0.21615817 -0.016603434 0.5205369 -0.13114242
000090 ae 66 34 3e d1 27 5a be 35 ef 0f be eb 80 58 be
       0.17617294 -0.21304251 -0.14056094 -0.21142928
0000a0 fd 34 7c 3c a9 6e 83 be 25 d8 05 3e 90 f7 2a 3d
       0.015393493 -0.25670364 0.13070734 0.04174
0000b0 eb 68 9d 3d 04 f3 f6 bd 3a bf 12 3c 2e b6 ae 3d
       0.07686027 -0.1205807 0.008956725 0.08530842
0000c0 13 cc 14 3e 52 4c 5d be b7 be 85 bd cd b0 f6 bd
       0.14530973 -0.21611145 -0.065305166 -0.12045441
0000d0 22 7c d3 bb c0 46 b4 3d 7c 11 7a be d1 f7 72 be
       -0.006454007 0.08802557 -0.24420732 -0.23727347
0000e0 bf b4 c3 bd c1 6e b7 be bd 92 9a be 13 94 8a 3b
       -0.09555959 -0.35826686 -0.30190077 0.0042290776
0000f0 1d 8f 3f bf b0 29 db 3d 86 5e c9 be 9f 61 10 3e
       -0.7482775 0.10701311 -0.39329928 0.1409974

mu_network.net.2.weight f4 [64, 64]
000000 09 c5 44 be 58 ed 4e be 43 93 0e 3f 12 0e 26 3e
       -0.19215788 -0.20207727 0.55693454 0.16216305
000010 bd de 89 be 52 76 e0 3d 86 42 89 3e 30 09 c0 3d
       -0.26927748 0.10960068 0.26808566 0.093767524
000020 23 10 e8 be 9e 5f e6 be bd 41 33 3d a5 d9 b3 be
       -0.4532481 -0.44994825 0.043763865 -0.35126987
000030 b3 e4 c2 3e be ef b0 be 41 da 40 3e 4e a7 42 3e
       0.3806511 -0.3455791 0.18833257 0.19009134
000040 1a 5b aa 3e 36 36 b3 bd 43 ac 30 bd 60 4e fa be
       0.3327263 -0.08750574 -0.04313303 -0.4888792
000050 34 d4 84 3e 96 08 dc be 61 b4 c0 be 20 50 da bd
       0.25943148 -0.429753 -0.37637618 -0.10659814
000060 a8 60 e5 b9 a1 54 06 3f fd ed 84 3e b2 f8 09 3f
       -0.00043750298 0.52472883 0.2596282 0.53895104
000070 c0 aa d6 3d 81 4f 2e bf 68 27 ed 3e 8a 25 2a 3d
       0.10481787 -0.68090063 0.46319127 0.041539706
000080 87 d3 1e bf 63 f4 f6 3e 6a f3 8e 3e 47 8f f0 3d
       -0.62041515 0.48233327 0.27920085 0.11746078
000090 30 8b 30 bd 61 e8 b1 3e 25 ba 81 3e c8 bd 78 3e
       -0.04310149 0.34747604 0.2533733 0.24291146
0000a0 5f 10 bb be 23 d6 02 be b4 ee f2 3d 2f cc cd 3d
       -0.36535928 -0.12776999 0.11861935 0.100487106
0000b0 ab d5 cf 3d c7 44 d3 bd ca c0 06 bb 7b 30 13 3e
       0.10148176 -0.103158526 -0.0020561689 0.14373963
0000c0 31 d1 66 3e a1 db b1 3e 5f 0f a7 3d 06 00 a6 be
       0.22540738 0.34737876 0.08157229 -0.32421893
0000d0 d5 62 52 3e 5d e2 04 3f 9a 7e 53 3e af 21 a5 bd
       0.20545514 0.519079 0.20653763 -0.08063065
0000e0 b7 3a 57 be ae 16 2c bd a1 b5 ca 3e e3 57 98 3e
       -0.21018492 -0.042013817 0.39591697 0.29754552
0000f0 ec 5c 1a 3e c0 0a 21 bc 08 a0 97 3c 59 dc d8 be
       0.1507451 -0.009829223 0.018508926 -0.42355612
000100 8f 8d 0e 3e 9c a9 05 3f b6 e2 d7 be af 22 3a 3e
       0.13921188 0.5221193 -0.42165154 0.18177293
000110 8b b7 38 bd 16 f7 17 be cb fd 1e bd 16 26 06 bf
       -0.045096915 -0.1484035 -0.038816255 -0.52401865
000120 2c 1e a6 3e 97 0e 96 bc 03 84 a8 be 04 2c c6 be
       0.32444894 -0.018317504 -0.32913217 -0.38705456
000130 80 51 b0 3e c1 40 1d bd e1 0c c0 be c8 49 b3 be
       0.3443718 -0.038391832 -0.37509826 -0.35017228
000140 6c d3 a9 3c 87 ce 15 bf d1 99 01 bf 9d 00 b9 3e
       0.020730697 -0.5851826 -0.5062533 0.3613328
000150 8c 21 98 be b7 c5 b8 bd cf 72 9a 3e b0 a9 09 3f
       -0.29713094 -0.09022086 0.30165717 0.5377455
000160 7a b5 c2 3e 7f 09 b9 3e 1b 0f 87 be d2 ce cf be
       0.3802908 0.36140057 -0.26378712 -0.4058748
000170 86 26 98 3e 82 54 d4 3d 81 e2 72 be af a9 8b be
       0.2971689 0.10367681 -0.23719217 -0.27277896
000180 8c ce 83 be e2 31 59 3e 44 e0 fe be e5 b2 d2 be
       -0.2574352 0.21210435 -0.49780476 -0.4115211
000190 c0 80 d1 bd 15 a2 d3 be b2 71 92 bd a2 9b da bd
       -0.10229635 -0.41334596 -0.07150592 -0.10674216
0001a0 5d 6f bd 3d ea f8 0f 3e 0f 48 39 3f 76 c0 e5 be
       0.092497565 0.14059797 0.7237558 -0.448734
0001b0 a2 35 a9 3e fc bf 04 be b1 51 b8 be ff 50 10 3e
       0.3304873 -0.12963861 -0.35999826 0.14093398
0001c0 19 3d 74 be e1 91 cd 3e c7 e6 7a bf 37 a5 9a 3e
       -0.23851432 0.4015036 -0.9800839 0.30204174
0001d0 9c ea be 3e d6 21 d1 3e 11 fe 24 3f d0 b4 f8 be
       0.37288368 0.40846127 0.64450175 -0.4857545
0001e0 0c b5 5f be c2 ec ff 3e 6f 31 b4 3d e5 77 36 be
       -0.21846408 0.4998532 0.08798491 -0.17819174
0001f0 6f e1 d4 3d f0 85 c4 3d 6c 93 cd 3e 8e 70 05 3e
       0.103945605 0.09595859 0.40151536 0.13031217
000200 45 ed a9 3d 0a 68 6a be 89 55 68 be e0 34 67 3f
       0.08297209 -0.2289125 -0.22688879 0.90315056
000210 6c 6a ee bd 29 ed 07 bf c1 62 c2 be ce 52 3c 3f
       -0.11641392 -0.5309625 -0.37965968 0.7356385
000220 81 94 8a 3e 60 0a 0b 3e 3a 4c 3c bd 3e 15 1a bf
       0.27066424 0.13578176 -0.045971133 -0.60188663
000230 03 f6 72 be 0f d8 d9 3e 49 ab 23 3e b3 14 6a 3e
       -0.23726659 0.42547652 0.15983309 0.22859459
000240 9b 0f e9 3e 0d b9 9a be a2 4b c8 3d 3d 01 57 3e
       0.4551972 -0.30219308 0.09780051 0.20996566
000250 dc e5 e3 3e 46 28 76 be 9e 2c 9b be 71 98 7b 3e
       0.44511306 -0.240388 -0.30307478 0.2456987
000260 1b 86 ed bc 34 c9 fe bd 64 6a 33 be 50 37 34 3e
       -0.02899461 -0.1244072 -0.17521054 0.17599225
000270 03 88 07 bf 06 42 72 3e 10 9f 2f ba 84 3e 79 3e
       -0.5294191 0.23657998 -0.00066994224 0.24340254
000280 a1 90 7b bc f5 a1 6d 3d 29 3c 27 bc 82 69 7b 3e
       -0.015354306 0.058015782 -0.010207214 0.24551967
000290 57 45 ed 3b 32 17 0f 3d 6c aa c5 be bf 88 17 3f
       0.007240932 0.03493423 -0.38606584 0.5919303
0002a0 aa 40 9f 3e db 7b 5a be 5b 86 cb 3e 3d 33 d2 bd
       0.31104022 -0.2133631 0.39750943 -0.10263679
0002b0 47 40 b9 3e 60 5b 32 bd 68 63 22 3f bd 0b 09 be
       0.36181852 -0.043544173 0.6343293 -0.13383384
0002c0 0b fb 25 3c 2f 79 fa 3e 77 49 07 bb 7c 0d 77 be
       0.010130654 0.4892058 -0.0020643154 -0.24126238
0002d0 b3 9a 04 3e 5c 33 35 bd c5 02 24 3f f1 7c b1 3d
       0.12949638 -0.044238433 0.64066726 0.08666409
0002e0 ba 65 3d be 63 c7 63 be 9d 64 d5 3e 07 d2 10 bd
       -0.18495837 -0.22244029 0.41678324 -0.035356548
0002f0 35 5a 4b 3d 60 ce b2 be f0 88 6a bd 40 10 97 bd
       0.049646575 -0.34923077 -0.0572595 -0.07376146
000300 dc fb f7 bd c3 bf 43 3d 98 8a 89 be f1 55 c8 ba
       -0.12108585 0.0477903 -0.2686355 -0.0015284402
000310 ab 47 1f 3f c5 d9 40 3e f6 94 06 bd 39 fd ae 3e
       0.6221873 0.18833072 -0.032856904 0.3417757
000320 1f fc 0d 3e 97 47 0a 3e ea 14 bc 3e 02 0d ba be
       0.13865708 0.13503872 0.36734706 -0.3633805
000330 3f 78 19 bf 18 d3 6d 3d 6c 4e 21 bc bb 86 ec bd
       -0.59949106 0.058062643 -0.009845357 -0.11549135
000340 9b 0b 1a 3f e9 d2 27 bf b6 b8 ce 3d a5 b6 84 be
       0.6017396 -0.655562 0.100938246 -0.25920597
000350 d4 74 87 3e 4d c8 c2 be 7e 91 df bd 7c eb ff 3d
       0.2645632 -0.38043442 -0.10916422 0.12496087
000360 52 9c 1e 3e d5 06 43 3e 51 57 1b bf e0 85 ed 3e
       0.15489319 0.19045575 -0.6068011 0.463912
000370 cd c7 42 3e f1 62 5f bf 66 32 32 3d f9 5e be 3e
       0.1902153 -0.8726035 0.043505095 0.37181833
000380 4f 7f db 3e 3c 9d 41 3f 0c 5b 9c 3e 5a d4 0f bd
       0.42870566 0.75630546 0.30538213 -0.035114624
000390 28 52 55 bb b1 16 0e 3e f0 a6 bf bd ca df ee be
       -0.003255019 0.13875844 -0.09358013 -0.46655113
0003a0 85 46 2b be fd fd ba 3e f7 f8 74 be 86 ed a8 be
       -0.1672612 0.36521903 -0.23923098 -0.32993716
0003b0 fa 35 6f bd 46 f8 52 bd 23 4b c1 3e 6b 5d 07 bf
       -0.058401085 -0.051506303 0.37752637 -0.5287692
0003c0 55 8d 37 be 48 8a e2 3e 15 63 e2 3c bc 64 2f 3e
       -0.17925008 0.44246125 0.027635137 0.17128271
0003d0 f6 db fe bb 8f 66 83 3d ca 20 b1 3d 8e 34 eb 3d
       -0.007777686 0.06416046 0.08648832 0.114846334
0003e0 dd 34 49 3e 56 20 09 be 71 57 04 3f 20 52 d1 3d
       0.19649072 -0.13391241 0.51695925 0.10220742
0003f0 83 8c 87 3e bb bf 1b bf d2 4f d2 bd 91 f2 ac 3d
       0.2647439 -0.6083943 -0.10269131 0.08444703

mu_network.net.2.bias f4 [64]
000000 7c d8 3b 3c e1 56 83 3e 1a 36 23 3e 57 fa ac bd
       0.011465188 0.2565222 0.15938607 -0.08446186
000010 38 b5 45 3e 74 8b 45 bc 1b 13 76 3e 29 ed f0 be
       0.1930741 -0.012057174 0.24030726 -0.4705594
000020 54 d3 bb 3d d9 fe 06 be 56 97 ab bd f8 c6 05 be
       0.09171167 -0.13183154 -0.083784744 -0.13064182
000030 63 97 01 be 3a 79 50 3e 18 70 45 be 2d a2 51 be
       -0.12655406 0.20358744 -0.19281042 -0.20472021
000040 f3 50 0c be db d7 b6 3e 7f 69 b1 be 92 99 9e be
       -0.13702755 0.3571156 -0.346508 -0.3097654
000050 62 ba 89 3c 1a 23 bc 3e 6f b2 11 3f b7 ea e1 bd
       0.016812507 0.3674553 0.56912893 -0.110310964
000060 5f 4f 2f 3e fb e1 5d bd df dc 16 bd 57 a6 a7 3e
       0.17120121 -0.05417059 -0.036831733 0.32744095
000070 c4 48 71 bd 5e 0c e3 3d 5a 07 f0 bd 24 78 17 be
       -0.058907285 0.11086343 -0.11720152 -0.14791924
000080 51 85 1c bd 77 9d d4 3e 17 a0 d0 bd 6c b3 73 be
       -0.038213078 0.41526386 -0.10186785 -0.23798913
000090 9d 34 83 be 37 87 4e 3c 36 42 10 bf ca a6 23 3e
       -0.25626078 0.01260548 -0.5635103 0.15981594
0000a0 ab fb 9d bd 9b e1 23 bd 28 4a 91 be dc 6c f5 3d
       -0.077140175 -0.040010076 -0.2837689 0.11983654
0000b0 88 e5 70 bd 76 72 25 3e 8e ff 97 bd 23 a6 9d 3e
       -0.058812648 0.16156945 -0.0742179 0.30790815
0000c0 21 80 e4 3e d5 16 b2 bd 16 99 aa be 43 d1 e8 be
       0.44629005 -0.08695761 -0.3331992 -0.45472154
0000d0 ab a6 1f be d5 96 c3 be 3a a2 5f 3e 09 08 7b 3e
       -0.15590923 -0.38201013 0.21839228 0.24514784
0000e0 13 1f 8a bd 65 5b 5c bd 0a bb eb 3d d5 50 ba be
       -0.06744208 -0.053798098 0.11510284 -0.36389795
0000f0 e3 f0 7e be 55 50 5b 3e 85 d2 c4 bd 34 4a 69 bd
       -0.24896578 0.21417363 -0.09610466 -0.05695553

mu_network.net.4.weight f4 [64, 64]
000000 c1 c3 d5 be f3 5c 44 3d 38 f7 52 3e 0f 2e ad be
       -0.4175091 0.047940206 0.20602119 -0.33824202
000010 a3 52 8c 3e 18 a8 12 3f 20 a7 a3 37 af e3 57 3d
       0.27406797 0.5728774 1.9508938e-05 0.05270737
000020 2f bd 0e 3e 95 03 0e bb 1e f0 39 be 54 de 90 be
       0.13939355 -0.0021669616 -0.18158004 -0.28294623
000030 e0 3d 1e bd d4 21 d0 bd f5 c7 4b 3e c5 c6 fa bd
       -0.038633227 -0.10162702 0.19900496 -0.122449435
000040 e6 42 0b 3e d9 56 59 bc fd 04 c5 3c e4 a7 56 3e
       0.13599738 -0.013265335 0.02405023 0.20962483
000050 4d 8f ae 3e e1 43 2e 3e 9c 41 14 3e 5d d8 8c 3e
       0.34093705 0.17018081 0.14478153 0.27508822
000060 f5 34 31 3e 12 56 5f 3e ff 2d 99 3e ee 6c a8 3e
       0.17305358 0.21810177 0.29917905 0.32895607
000070 b2 7c 29 3f dd 8f 41 bf 53 10 93 3d 17 e3 d8 bc
       0.66205895 -0.7561014 0.07180848 -0.026475472
000080 9f 54 b4 bc 62 3f 04 3f fa 36 18 3d 27 bc 1a be
       -0.022013007 0.51659214 0.037161805 -0.15110837
000090 50 70 04 bc db 3f d1 bd 77 9a 94 be a6 1f 51 3e
       -0.008083418 -0.102172576 -0.29024097 0.20422229
0000a0 49 42 82 be 41 d6 9d be 74 2d 31 3d 5f a4 65 3c
       -0.25441197 -0.30827525 0.043256238 0.01401624
0000b0 77 76 83 bd df 5c f2 3d 03 8f 8f 3d b2 a7 60 be
       -0.0641908 0.1183412 0.07009699 -0.2193897
0000c0 f2 f5 16 be 24 fd 65 3e b9 f9 c0 bd 3d fc a2 3e
       -0.14742258 0.22459847 -0.09422631 0.31833068
0000d0 28 ce 33 be 0f c5 6f be 9e d3 43 be 06 90 1d bd
       -0.17559111 -0.23415016 -0.19123694 -0.03846743
0000e0 92 2c 95 3a 44 bb f4 3e 89 c0 18 be 58 7d 8c be
       0.0011381081 0.47799122 -0.14917196 -0.2743938
0000f0 ca 33 0b bd 96 f1 c7 bc bc e8 08 3e 69 cc 7e bd
       -0.033984937 -0.02440719 0.13370031 -0.06220666
000100 39 f2 16 3e 4d da 84 3c 07 f1 d9 3d 01 ba 0f be
       0.14740838 0.016217375 0.106416754 -0.14035799
000110 c9 0a db bd 08 4c 06 bc 1d 0e 0c 3d 17 be 76 3d
       -0.106954165 -0.008196838 0.034193147 0.060239878
000120 6f e6 ab bd 95 b7 42 be 11 4c d2 3d 55 53 98 3d
       -0.08393561 -0.19015343 0.10268415 0.07437769
000130 76 31 81 3d f0 96 f9 3c b1 1f a6 3c aa eb b1 bc
       0.06308262 0.03046748 0.020278784 -0.021718819
000140 77 25 0c 3e df 47 05 3e 90 7f 9e be 3f 1c 24 be
       0.13686167 0.13015698 -0.30956697 -0.160264
000150 c0 d8 91 bd 15 12 04 be 56 39 86 bc 97 a8 d2 3c
       -0.0712142 -0.12897523 -0.016384762 0.025715156
000160 31 7b a3 3c e5 0f ff 3c c7 33 68 bd 44 66 0f be
       0.019956203 0.031135509 -0.056690004 -0.14003855
000170 62 50 d3 bd c5 22 6d bb ee 61 d0 bc e8 e8 6d be
       -0.10318066 -0.0036184054 -0.025437322 -0.23233378
000180 37 7c dd bc e1 bf 1c 3e 76 64 9f 3e cc a0 97 3c
       -0.02703677 0.15307571 0.31131333 0.018509291
000190 5a c1 8c bd cf 81 96 39 8b d3 b2 bd 15 18 3a bd
       -0.068728164 0.00028706944 -0.08731755 -0.045433123
0001a0 7d 4c 93 3d ec e9 7f 3e cc 42 c7 be 01 a6 c7 bd
       0.07192323 0.24991578 -0.3891815 -0.097484596
0001b0 c1 18 9e 3d 19 a2 8b bd 4b 74 3b be e0 86 02 be
       0.07719565 -0.06818027 -0.18306081 -0.12746763
0001c0 13 89 56 3c d1 dd 9b 3d ea 5e 0f 3e a2 ce b8 bd
       0.0130942045 0.076106675 0.1400105 -0.09023787
0001d0 f5 a9 ce 3d aa 59 d1 3d 93 c6 04 be 1b 5d 88 be
       0.100910105 0.1022218 -0.12966375 -0.26633534
0001e0 75 cf 52 bd 98 ae 9d bd f1 eb 0b 3d e8 be 4d be
       -0.051467378 -0.07699317 0.034160558 -0.20092356
0001f0 01 c8 57 3e 02 93 07 be ac f2 73 be ad 13 a0 3c
       0.21072389 -0.13239673 -0.2382304 0.019540632
000200 8a e9 1b bd 87 5c 70 3d 64 cd 3e be f3 f5 e9 bc
       -0.038064517 0.05868199 -0.18633038 -0.02855966
000210 9d c4 15 be 51 de 60 bd b0 84 3f bd 0f 8f c5 3d
       -0.14625783 -0.054899517 -0.0467574 0.09646427
000220 2f 66 16 be 81 eb 55 be 96 12 84 3e d1 ef 2d be
       -0.14687417 -0.20890619 0.2579543 -0.16986014
000230 7e 44 03 3d c3 83 51 be 48 69 00 bc 78 7b 89 bd
       0.03204774 -0.2046042 -0.007837601 -0.06713003
000240 aa 51 37 be dd 80 14 bc 79 a5 3c 3c c5 31 15 3d
       -0.17902246 -0.0090639265 0.011514061 0.036424417
000250 e3 52 48 3d 04 16 f5 bd 37 5c b4 bc 55 ac 65 3e
       0.048907172 -0.1196709 -0.022016628 0.2242902
000260 e5 0d d4 bd 1a 38 30 be 07 be 01 3e 1b e8 80 bd
       -0.10354213 -0.17208901 0.12670146 -0.062942706
000270 16 6e 90 bd e9 be 13 be 5a db ff 3d 30 97 5a ba
       -0.07052247 -0.14428295 0.1249301 -0.0008338569
000280 59 71 7c 3d 92 8c 81 bd fe 95 89 3d bc 92 cb bb
       0.061631534 -0.0632564 0.06718062 -0.0062125605
000290 63 46 ba bd 83 01 b3 3d 0f 41 9a bd 41 41 30 3d
       -0.090954565 0.08740523 -0.0753194 0.04303098
0002a0 86 0e 07 be f6 c5 5e bd 19 25 1f be 4b ff 03 3e
       -0.13189134 -0.05438801 -0.15541495 0.12890355
0002b0 f1 9e 47 be c9 04 0f 3e 3b 20 9a 3c 8a 2b 14 3e
       -0.19494225 0.13966669 0.018814197 0.14469734
0002c0 e3 17 90 bd df f6 d2 bd b6 b4 92 bb ac bd 0d be
       -0.07035806 -0.10300993 -0.004477109 -0.13841885
0002d0 54 68 07 bd fa 6b 32 3e b5 16 0f 3e b8 40 f2 bd
       -0.03305848 0.17424002 0.13973506 -0.1182875
0002e0 6b 82 7d 3d af 30 2c be 9d ad 22 be 3b 18 d2 3d
       0.061891954 -0.16815446 -0.1588654 0.10258528
0002f0 05 31 12 3e 2d 79 17 3b 39 28 0a be a7 9f 47 3d
       0.14276512 0.0023112998 -0.13491906 0.04873624
000300 92 ae e6 3e 38 8f e7 3e c1 98 94 3e f8 70 90 be
       0.45055062 0.45226455 0.29022792 -0.28211188
000310 71 92 c3 3e 60 5f 48 be 89 23 3b be 8b 19 0f 3d
       0.38197663 -0.19567633 -0.18275274 0.03493647
000320 d0 89 70 bd a4 dc 85 3d e4 ca 9e be 38 22 c1 be
       -0.05872518 0.065362245 -0.31014168 -0.3772142
000330 5e bd 4c bd 03 64 36 3e 16 41 1b 3e 33 a3 18 be
       -0.049985282 0.17811589 0.15161547 -0.14906006
000340 b4 91 90 3e 03 13 97 3e 2f 27 99 be 53 f3 35 be
       0.28236163 0.29506692 -0.29912707 -0.17768602
000350 97 b8 3d bd 0d a8 bc be 62 fa db be 49 46 7a be
       -0.046318617 -0.36846963 -0.42964464 -0.24440874
000360 7b b7 7d 3e 5f 16 0f be e6 8a 5f bd 73 44 07 bf
       0.24777023 -0.13973378 -0.054575823 -0.5283882
000370 c6 ef 77 be e5 f5 6a 3e af 19 8e bd f3 53 17 3d
       -0.2421256 0.22945364 -0.069384925 0.036945295
000380 ed 68 3b 3e e8 27 c9 3e 75 59 cb be c6 88 7c be
       0.18301745 0.3928826 -0.39716688 -0.2466155
000390 24 76 25 bf 14 84 84 3e 49 75 8b be cc 7a 41 be
       -0.64633393 0.25882018 -0.2723792 -0.188945
0003a0 06 d8 0c be 1f 5e dd 3e 85 91 73 bd 38 0a 85 3e
       -0.13754281 0.4323587 -0.05946495 0.2598436
0003b0 8a 56 d6 3c f6 1c c9 3d ae 90 56 be 35 58 59 3e
       0.026164312 0.09819977 -0.20953628 0.21225055
0003c0 9c 59 77 3d 9f 20 f8 bd 7c f6 68 be f1 1f 3d 3c
       0.060388193 -0.12115597 -0.22750276 0.01154326
0003d0 24 11 ca bd 4f 2f d2 3d 38 9b b3 3d f5 fa b0 3e
       -0.098665506 0.1026293 0.0876984 0.34566465
0003e0 b6 36 52 3e 06 cf d5 bd 55 91 78 be 8b 56 bf be
       0.20528683 -0.10439877 -0.2427419 -0.37370715
0003f0 06 b5 82 be 18 ee 2b 3e d7 04 bd 3d 68 63 c7 be
       -0.25528735 0.16790044 0.09229439 -0.38943028

mu_network.net.4.bias f4 [64]
000000 4d b5 41 3d 50 01 90 3d d1 d3 03 3d b9 94 98 3e
       0.047292043 0.070315 0.032184426 0.29800966
000010 ff de 29 bc 5f 67 15 be a0 df 8d bc 1e 9b 3c bd
       -0.010368108 -0.14590214 -0.017318547 -0.04604637
000020 73 89 03 3e 25 b3 a1 3d 32 8f f4 3a 05 59 ee bc
       0.12845401 0.07895497 0.0018658398 -0.029095182
000030 79 7f 1e 3e ac 12 db 3d d0 cd 13 3e af 9e e4 3d
       0.15478314 0.10696921 0.1443398 0.11163079
000040 7f e7 04 3e cf a0 04 bd c4 f6 f4 bc a5 df 42 3d
       0.12978934 -0.03237992 -0.029902823 0.047576565
000050 06 3f 99 3e f1 a3 60 3c 4b ed 1c bc b0 0c 0e 3c
       0.29930896 0.013710962 -0.009578059 0.008670017
000060 15 4b 0f 3d 1e 3d be bd 80 8a 5c be 87 a3 95 bd
       0.034983713 -0.09289001 -0.21537209 -0.07306581
000070 bc a0 b5 bd 6d 47 b1 bd b6 e2 cd 3d 0a c1 ca bc
       -0.08868548 -0.086562015 0.10053007 -0.024750251
000080 39 69 db bd 16 80 57 bc 46 c7 f1 3c 79 7b 72 3d
       -0.10713429 -0.013153097 0.029513966 0.059199784
000090 24 f8 36 3d 4c 3b 0a be 07 7d 81 3e 0e ca d9 ba
       0.04467024 -0.13499182 0.252907 -0.0016616003
0000a0 bb 43 82 3c 74 d9 7c 3e b6 24 49 be b4 4e 27 3d
       0.015901437 0.24692327 -0.1964291 0.04084654
0000b0 ed 51 cd 3d 1f 4e ae 3d 0a e3 c5 3d e3 01 82 3e
       0.10025392 0.08510994 0.09662445 0.25392064
0000c0 27 d3 95 3d a5 2c 33 3d 3a 8a 9c 3d 7c 93 4f 3e
       0.07315665 0.04374375 0.07643552 0.20271105
0000d0 08 94 6c 3e 06 62 df 3c 40 29 50 3d 59 90 af 3e
       0.23103344 0.02726842 0.05082059 0.34289816
0000e0 9a 3a 5e be a1 8b 60 3e 68 b2 29 be a0 bc 87 3d
       -0.21702042 0.21928264 -0.16571963 0.06627774
0000f0 a8 db fe bb ea cb 0f 3d 72 2c e5 3c 2c 8b 69 be
       -0.00777765 0.035106577 0.027975295 -0.22806996

mu_network.net.6.weight f4 [1, 64]
000000 3c b4 54 3e b1 d6 0d 39 e7 4c 2e b9 ea c9 b6 3e
       0.20771879 0.00013526787 -0.00016622581 0.35700923
000010 d9 66 b3 b8 83 d6 96 be 08 03 4b 39 75 9e 62 b9
       -8.554542e-05 -0.29460534 0.00019360718 -0.0002161207
000020 ac 34 bd be a5 82 db 3e d3 c5 a8 3d e3 b0 83 39
       -0.36954248 0.4287311 0.08240857 0.00025118058
000030 1c c9 a7 3e 79 50 1c 3e a1 2b 63 3e bb 38 83 3e
       0.32770622 0.15265073 0.22184612 0.2562922
000040 f9 77 c9 3a ec 33 2f 39 a5 c4 42 3e 63 9e 38 3e
       0.0015370838 0.00016708643 0.19020326 0.1802917
000050 b2 76 e4 3e 2e 23 54 3e 83 3e be be 32 a1 82 39
       0.44621807 0.20716545 -0.37157068 0.00024915632
000060 3c ce d5 3e d9 71 82 b9 17 c9 dd bc 60 03 26 be
       0.41758907 -0.00024880355 -0.027073426 -0.16212225
000070 8e 43 6e be 2c c4 7e 3e 1f ef 6d 3e 61 4d 2d be
       -0.23267958 0.24879521 0.23235749 -0.16924049
000080 29 59 ae be 84 bf 05 39 40 4f a1 b8 9d f9 a3 3e
       -0.340524 0.00012755214 -7.69184e-05 0.32026377
000090 38 d6 a0 39 05 f3 92 39 bb bc ed 3d 95 f3 ad 3e
       0.00030677184 0.00028028354 0.11608263 0.339749
0000a0 61 6f b7 39 fe e5 ad 3e 20 f0 f2 be c4 b6 8e 3e
       0.00034987464 0.33964533 -0.47448826 0.27873814
0000b0 1d 38 6e 3e 51 2b ff 3d 5a e8 b6 bd 50 92 10 3e
       0.23263593 0.12459434 -0.08931036 0.14118314
0000c0 da 82 cb be 7b 46 ea 3e c1 10 81 3b 07 a8 92 3e
       -0.3974827 0.45756897 0.003938765 0.2864382
0000d0 4d 1c f4 3c 76 3f 96 ba 99 92 75 3e 41 52 99 3e
       0.029798651 -0.0011463005 0.23981704 0.29945567
0000e0 87 52 40 be cc f2 87 39 99 71 9d be f0 ec c1 be
       -0.18781482 0.00025930104 -0.3075073 -0.3787608
0000f0 a6 dd 63 3e e8 04 53 be 87 43 c5 b9 a1 83 9a be
       0.22252521 -0.2060734 -0.0003762508 -0.3017855

exp_avg f4 [64, 23]
000000 c7 b3 04 ba 68 f5 7b 39 04 04 87 39 6f 18 81 b8
       -0.00050621893 0.00024028646 0.00025752198 -6.1557505e-05
000010 82 fb 52 38 c6 cd 88 38 de 6e a3 39 03 e9 4c 39
       5.0302137e-05 6.523314e-05 0.00031172385 0.0001954176
000020 c8 62 33 ba fa 58 c6 39 23 ff d3 b7 2e 99 2b 39
       -0.00068430277 0.00037831796 -2.5271967e-05 0.00016364895
000030 22 e5 9b b7 fc f6 3b b8 3b 88 78 b9 a8 dc f8 36
       -1.8584138e-05 -4.4814296e-05 -0.00023701873 7.4166637e-06
000040 cc 77 65 b9 60 97 16 b9 b8 38 86 38 24 ab d2 38
       -0.0002188377 -0.00014361506 6.4001826e-05 0.00010045458
000050 54 33 97 39 82 19 a4 39 cd 9b d5 b9 d1 97 10 b9
       0.00028839207 0.00031299522 -0.00040742607 -0.00013789466
000060 a7 6e 2a 39 43 63 2b 3a ec 7f 3d 39 b2 66 7b 39
       0.00016253685 0.00065379235 0.00018072099 0.00023975482
000070 ba c9 a0 b9 d8 90 8e b8 28 00 ba 38 c0 f1 0d b9
       -0.00030667876 -6.798067e-05 8.8692e-05 -0.00013536867
000080 1b 49 2e 38 77 54 86 b9 2e 37 92 b9 88 3e df 38
       4.1552918e-05 -0.00025621403 -0.00027888402 0.00010645116
000090 70 89 19 b7 f8 6e 61 b9 88 85 9a b7 35 9f de b9
       -9.15151e-06 -0.00021499011 -1.8420411e-05 -0.00042461758
0000a0 23 73 aa b7 18 2c 66 b8 64 27 a2 b9 e6 25 31 ba
       -2.0319194e-05 -5.487734e-05 -0.00030928396 -0.00067576615
0000b0 14 70 d5 b9 4d 19 a2 39 43 61 a3 39 28 76 de b7
       -0.0004071003 0.00030917898 0.00031162248 -2.6519483e-05
0000c0 5b 89 23 39 ec 8e 0b 39 28 71 01 b8 54 2e 07 b9
       0.0001559606 0.00013309316 -3.086138e-05 -0.00012891862
0000d0 8e b9 30 b9 37 49 0a 39 37 df 59 b9 ac 17 01 ba
       -0.00016853792 0.0001318798 -0.00020777887 -0.0004924487
0000e0 51 b7 6e b8 73 c8 67 39 59 da 17 39 08 11 5b 39
       -5.691435e-05 0.0002210455 0.00014481823 0.00020891812
0000f0 8d 8a e9 b9 54 1f 7e 38 d0 dd 21 b9 b1 df ac b8
       -0.00044544452 6.0587496e-05 -0.00015436788 -8.243265e-05
000100 44 ac a7 b8 f8 75 5d 39 f0 a5 bc b7 fa 2e 98 b8
       -7.9952675e-05 0.00021120149 -2.2488617e-05 -7.256675e-05
000110 72 fa a0 37 f0 6a bf 39 56 9c 0b b9 27 ca 92 b9
       1.9190109e-05 0.00036510034 -0.00013314313 -0.00027997905
000120 1a 16 f2 38 39 60 89 b9 a1 3b 85 b9 ff 45 86 b9
       0.00011543576 -0.00026202368 -0.00025412164 -0.00025610623
000130 71 80 21 3a 76 0e 9f b9 31 c8 2c 39 20 f2 ea b8
       0.0006160802 -0.00030337617 0.00016477775 -0.00011203089
000140 6b 8c 5e b9 05 bb 7a 39 ab 30 bb 39 6d 8a 59 b9
       -0.0002122388 0.00023911528 0.0003570368 -0.000207463
000150 08 53 e7 39 07 e3 28 3a 94 89 c4 39 89 e0 89 b9
       0.00044121617 0.0006442521 0.00037486537 -0.00026297968
000160 3a 20 25 39 be 1e d4 b9 4a c0 31 38 63 81 bc b8
       0.00015747632 -0.00040458696 4.237917e-05 -8.988639e-05
000170 00 71 6c b9 42 48 b7 38 2c 02 f1 b8 30 04 b7 b9
       -0.0002254881 8.739579e-05 -0.0001149218 -0.000349076
000180 43 ae b7 39 be 59 b0 39 34 69 f9 36 f5 2a 02 b9
       0.00035034315 0.000336362 7.4330255e-06 -0.00012413769
000190 05 85 b0 b8 26 fa 15 39 79 18 06 b9 8c f1 47 38
       -8.417111e-05 0.00014302935 -0.00012788353 4.7670255e-05
0001a0 a7 90 11 b9 cc 11 1a b9 87 1c 5d 39 48 15 c3 b8
       -0.00013882165 -0.00014693214 0.0002108683 -9.3022885e-05
0001b0 33 f0 e0 38 a8 6b dc b8 d8 c8 bb 36 be 36 b9 38
       0.00010725893 -0.0001051047 5.5964156e-06 8.831684e-05
0001c0 6f 1c 9b 39 c8 c8 88 b7 7f 14 37 39 97 84 3f b8
       0.00029585088 -1.630596e-05 0.00017459875 -4.5661433e-05
0001d0 78 83 49 b9 eb e8 92 39 35 66 2a b8 36 fb cf 38
       -0.0001921783 0.00028020827 -4.0626346e-05 9.917321e-05
0001e0 bc c2 29 39 a6 f7 16 b9 da 62 7c b9 b6 a7 ea b9
       0.0001618964 -0.00014397371 -0.00024069418 -0.00044756912
0001f0 96 27 9e 39 42 c6 51 b9 2e 78 4c 39 5c 70 72 39
       0.00030165602 -0.0002000565 0.00019499726 0.00023120776
000200 ae e5 db 39 8e 74 90 b9 7c 2e ae b9 16 ea bd 38
       0.0004194206 -0.0002755266 -0.000332225 9.055824e-05
000210 60 cf 8a 35 f3 d6 0f ba 49 1c d6 b9 42 2a d6 38
       1.0342155e-06 -0.0005487047 -0.00040838335 0.00010212186
000220 dc 68 bb b8 7e e3 01 ba ce 4e 23 b8 96 37 1c 3a
       -8.9363864e-05 -0.00049548585 -3.893562e-05 0.00059592107
000230 aa 26 8b 39 e0 4f 83 b9 2e 73 d5 39 14 bc 76 39
       0.00026540953 -0.0002504578 0.0004071234 0.00023530453
000240 b5 0e 3d 39 79 59 ae b9 a6 22 b9 38 73 7b b6 38
       0.00018029923 -0.00033254529 8.827941e-05 8.7014305e-05
000250 fb b9 28 3a c7 97 76 38 5e 74 39 ba bc 35 35 3a
       0.00064364047 5.8792324e-05 -0.000707453 0.0006912609
000260 54 7e f5 37 04 4a 80 35 41 de 82 b9 b8 9a 68 3a
       2.9265102e-05 9.558285e-07 -0.00024961124 0.00088731525
000270 a8 dc 2d 3a 4b 9f 09 3a 4d da 66 b9 11 b6 d7 b8
       0.00066323066 0.0005249872 -0.00022015833 -0.000102859114
000280 9b 4b 03 3a f2 a0 63 b9 8f 99 a9 b8 99 c5 3f b8
       0.00050085195 -0.00021708364 -8.0871505e-05 -4.5721976e-05
000290 b5 b0 73 b9 f4 fc 51 39 7b 8e 8e 39 08 66 a0 b9
       -0.00023240114 0.00020026026 0.00027190507 -0.00030593597
0002a0 96 81 0f b9 a8 d2 96 39 c3 03 2b b8 c8 db f2 b8
       -0.00013685817 0.0002876718 -4.077308e-05 -0.00011580397
0002b0 ea ad c3 b9 83 7f 48 39 af c8 3a ba e8 82 c0 38
       -0.00037322874 0.00019120988 -0.0007125241 9.1796566e-05
0002c0 5a 62 59 39 fd 22 0e 3a 45 ba 9c b8 fa 1a 91 39
       0.00020731371 0.0005422084 -7.473355e-05 0.00027676654
0002d0 58 6f e5 38 da 0d 27 39 34 46 de 38 0b 38 38 39
       0.0001094031 0.00015931521 0.00010598861 0.00017568485
0002e0 6c eb d9 b9 4d 9c 89 b9 2a 19 07 ba 50 f1 15 b8
       -0.00041564868 -0.0002624713 -0.0005153591 -3.5749108e-05
0002f0 b0 b1 af b8 c7 60 62 39 7e fc 8e 39 f6 c9 e8 38
       -8.377747e-05 0.00021589092 0.00027272472 0.0001110024
000300 4f 9a 9e 39 1a b8 60 39 80 af 18 b8 ff 90 1a 39
       0.00030251077 0.00021430888 -3.640307e-05 0.000147406
000310 48 f5 ff b8 58 30 81 b6 5c 2e af 38 17 37 54 39
       -0.00012205035 -3.8501275e-06 8.3532854e-05 0.00020238418
000320 bc 96 a1 39 7e c6 56 39 84 aa b0 39 ad 50 51 39
       0.0003082062 0.00020482574 0.0003369638 0.00019961847
000330 0c 10 97 39 1e 3c f4 38 16 4c 8f b8 fe 30 3a b9
       0.0002881292 0.00011646024 -6.8329435e-05 -0.00017756593
000340 15 a1 20 ba a8 e4 bd b7 63 5f 22 b9 a0 6f 74 38
       -0.0006127519 -2.2637032e-05 -0.00015485058 5.8278092e-05
000350 e2 4b ad 39 d2 e7 90 b8 e7 74 74 b9 3c 34 09 38
       0.00033053668 -6.909635e-05 -0.00023313203 3.2711992e-05
000360 ec 6f ce 39 dc 85 8e b9 6a 4a 5e 39 e7 64 0d 3a
       0.0003937477 -0.00027184084 0.00021199291 0.0005393759
000370 88 87 d8 b8 ed 68 12 ba ce 47 e0 38 c3 73 cc 38
       -0.00010324927 -0.0005585093 0.00010694527 9.74904e-05
000380 d3 78 42 b9 94 d2 1c ba b0 b5 1b 39 78 07 9a 39
       -0.00018546292 -0.00059823063 0.00014849636 0.00029378734
000390 51 b8 24 39 91 a3 e5 b9 cc 58 80 39 d0 c9 de 39
       0.00015708922 -0.0004380015 0.0002448022 0.00042493502
0003a0 65 a4 88 b8 42 95 24 39 4d 9c 1b 39 e7 1b 8e 39
       -6.515606e-05 0.00015695862 0.00014840178 0.0002710514
0003b0 22 71 90 38 62 f8 a0 b8 2b b6 1c 38 11 5b ab b9
       6.887528e-05 -7.6756594e-05 3.7362955e-05 -0.0003268351
0003c0 94 23 7a 39 35 84 12 b8 94 59 09 38 16 e7 47 39
       0.00023855112 -3.493224e-05 3.274677e-05 0.00019064205
0003d0 49 8a 8d 39 48 3e 79 39 0d 68 30 38 29 af 5b 39
       0.00026996646 0.00023769692 4.2058575e-05 0.0002095072
0003e0 eb 2f b5 39 7c 6b a2 39 d2 31 0d 39 d0 c0 ba 38
       0.00034558712 0.0003097913 0.00013465367 8.905085e-05
0003f0 e2 fd 60 39 4d f6 15 3a 54 42 21 39 08 60 2c b9
       0.00021456883 0.00057206006 0.00015378866 -0.00016438973
